…
 82  Idle_Min           34454 non-null  float64
 83  Label              34454 non-null  object 
 84  Cat                34454 non-null  object 
 85  Sub_Cat            34454 non-null  object 
dtypes: float64(45), int64(34), object(7)
memory usage: 22.6+ MB
None
shape of dataset :  (34454, 86)


the number of values for labels :  DDoS_HTTP    33397
Normal        1057
Name: Sub_Cat, dtype: int64
Model: "sequential"
_________________________________________________________________
 Layer (type)                Output Shape              Param #   
=================================================================
 conv1d (Conv1D)             (None, 72, 64)            256       
                                                                 
 batch_normalization (BatchN  (None, 72, 64)           256       
 ormalization)                                                   
                                                                 
 conv1d_1 (Conv1D)           (None, 72, 128)           8320      
                                                                 
 batch_normalization_1 (Batc  (None, 72, 128)          512       
 hNormalization)                                                 
                                                                 
 max_pooling1d (MaxPooling1D  (None, 72, 128)          0         
 )                                                               
                                                                 
 dropout (Dropout)           (None, 72, 128)           0         
                                                                 
 conv1d_2 (Conv1D)           (None, 72, 128)           16512     
                                                                 
 batch_normalization_2 (Batc  (None, 72, 128)          512       
 hNormalization)                                                 
                                                                 
 max_pooling1d_1 (MaxPooling  (None, 72, 128)          0         
 1D)                                                             
                                                                 
 dropout_1 (Dropout)         (None, 72, 128)           0         
                                                                 
 conv1d_3 (Conv1D)           (None, 72, 128)           16512     
                                                                 
 batch_normalization_3 (Batc  (None, 72, 128)          512       
 hNormalization)                                                 
                                                                 
 max_pooling1d_2 (MaxPooling  (None, 72, 128)          0         
 1D)                                                             
                                                                 
 dropout_2 (Dropout)         (None, 72, 128)           0         
                                                                 
 conv1d_4 (Conv1D)           (None, 72, 128)           16512     
                                                                 
 batch_normalization_4 (Batc  (None, 72, 128)          512       
 hNormalization)                                                 
                                                                 
 max_pooling1d_3 (MaxPooling  (None, 72, 128)          0         
 1D)                                                             
                                                                 
 dropout_3 (Dropout)         (None, 72, 128)           0         
                                                                 
 conv1d_5 (Conv1D)           (None, 72, 128)           16512     
                                                                 
 batch_normalization_5 (Batc  (None, 72, 128)          512       
 hNormalization)                                                 
                                                                 
 max_pooling1d_4 (MaxPooling  (None, 72, 128)          0         
 1D)                                                             
                                                                 
 dropout_4 (Dropout)         (None, 72, 128)           0         
                                                                 
 conv1d_6 (Conv1D)           (None, 72, 128)           16512     
                                                                 
 batch_normalization_6 (Batc  (None, 72, 128)          512       
 hNormalization)                                                 
                                                                 
 max_pooling1d_5 (MaxPooling  (None, 72, 128)          0         
 1D)                                                             
                                                                 
 dropout_5 (Dropout)         (None, 72, 128)           0         
                                                                 
 conv1d_7 (Conv1D)           (None, 72, 128)           16512     
                                                                 
 batch_normalization_7 (Batc  (None, 72, 128)          512       
 hNormalization)                                                 
                                                                 
 max_pooling1d_6 (MaxPooling  (None, 72, 128)          0         
 1D)                                                             
                                                                 
 dropout_6 (Dropout)         (None, 72, 128)           0         
                                                                 
 conv1d_8 (Conv1D)           (None, 72, 128)           16512     
                                                                 
 batch_normalization_8 (Batc  (None, 72, 128)          512       
 hNormalization)                                                 
                                                                 
 max_pooling1d_7 (MaxPooling  (None, 72, 128)          0         
 1D)                                                             
                                                                 
 dropout_7 (Dropout)         (None, 72, 128)           0         
                                                                 
 flatten (Flatten)           (None, 9216)              0         
                                                                 
 dense (Dense)               (None, 128)               1179776   
                                                                 
 dropout_8 (Dropout)         (None, 128)               0         
                                                                 
 batch_normalization_9 (Batc  (None, 128)              512       
 hNormalization)                                                 
                                                                 
 dense_1 (Dense)             (None, 128)               16512     
                                                                 
 batch_normalization_10 (Bat  (None, 128)              512       
 chNormalization)                                                
                                                                 
 dense_2 (Dense)             (None, 2)                 258       
                                                                 
=================================================================
Total params: 1,326,082
Trainable params: 1,323,394
Non-trainable params: 2,688
_________________________________________________________________
Epoch 1/50
  1/625 [..............................] - ETA: 44:00 - loss: 6.0256 - accuracy: 0.4531
…
