…
 83  Label              1729014 non-null  object 
 84  Cat                1729014 non-null  object 
 85  Sub_Cat            1729014 non-null  object 
dtypes: float64(45), int64(34), object(7)
memory usage: 1.1+ GB
None
shape of dataset :  (1729014, 86)


the number of values for labels :  DoS_TCP    1725909
Normal        3105
Name: Sub_Cat, dtype: int64
Model: "sequential"
_________________________________________________________________
 Layer (type)                Output Shape              Param #   
=================================================================
 conv1d (Conv1D)             (None, 72, 64)            256       
                                                                 
 batch_normalization (BatchN  (None, 72, 64)           256       
 ormalization)                                                   
                                                                 
 conv1d_1 (Conv1D)           (None, 72, 128)           8320      
                                                                 
 max_pooling1d (MaxPooling1D  (None, 72, 128)          0         
 )                                                               
                                                                 
 conv1d_2 (Conv1D)           (None, 72, 128)           16512     
                                                                 
 batch_normalization_1 (Batc  (None, 72, 128)          512       
 hNormalization)                                                 
                                                                 
 max_pooling1d_1 (MaxPooling  (None, 72, 128)          0         
 1D)                                                             
                                                                 
 conv1d_3 (Conv1D)           (None, 72, 128)           16512     
                                                                 
 batch_normalization_2 (Batc  (None, 72, 128)          512       
 hNormalization)                                                 
                                                                 
 max_pooling1d_2 (MaxPooling  (None, 72, 128)          0         
 1D)                                                             
                                                                 
 conv1d_4 (Conv1D)           (None, 72, 128)           16512     
                                                                 
 batch_normalization_3 (Batc  (None, 72, 128)          512       
 hNormalization)                                                 
                                                                 
 max_pooling1d_3 (MaxPooling  (None, 72, 128)          0         
 1D)                                                             
                                                                 
 conv1d_5 (Conv1D)           (None, 72, 128)           16512     
                                                                 
 batch_normalization_4 (Batc  (None, 72, 128)          512       
 hNormalization)                                                 
                                                                 
 max_pooling1d_4 (MaxPooling  (None, 72, 128)          0         
 1D)                                                             
                                                                 
 conv1d_6 (Conv1D)           (None, 72, 128)           16512     
                                                                 
 batch_normalization_5 (Batc  (None, 72, 128)          512       
 hNormalization)                                                 
                                                                 
 max_pooling1d_5 (MaxPooling  (None, 72, 128)          0         
 1D)                                                             
                                                                 
 conv1d_7 (Conv1D)           (None, 72, 128)           16512     
                                                                 
 batch_normalization_6 (Batc  (None, 72, 128)          512       
 hNormalization)                                                 
                                                                 
 max_pooling1d_6 (MaxPooling  (None, 72, 128)          0         
 1D)                                                             
                                                                 
 conv1d_8 (Conv1D)           (None, 72, 128)           16512     
                                                                 
 batch_normalization_7 (Batc  (None, 72, 128)          512       
 hNormalization)                                                 
                                                                 
 max_pooling1d_7 (MaxPooling  (None, 72, 128)          0         
 1D)                                                             
                                                                 
 flatten (Flatten)           (None, 9216)              0         
                                                                 
 dense (Dense)               (None, 128)               1179776   
                                                                 
 batch_normalization_8 (Batc  (None, 128)              512       
 hNormalization)                                                 
                                                                 
 dense_1 (Dense)             (None, 128)               16512     
                                                                 
 batch_normalization_9 (Batc  (None, 128)              512       
 hNormalization)                                                 
                                                                 
 dense_2 (Dense)             (None, 2)                 258       
                                                                 
=================================================================
Total params: 1,325,570
Trainable params: 1,323,138
Non-trainable params: 2,432
_________________________________________________________________
Epoch 1/10
  1/625 [..............................] - ETA: 40:51 - loss: 5.5778 - accuracy: 0.4062
…
